health_model_20250710_223125.onnx (onnx, 12043 bytes, 6 tensors)

model.0.weight f4 [64, 9]
0.13252962 -0.16397372 -0.6486406 0.076508924 -0.416827 0.5321225 0.15084459 0.3120443
-0.0661822 -0.57418466 -0.24255866 0.24030276 0.2008818 0.39095816 -0.3936697 0.24806768
-0.16064228 -0.1897599 -0.16443817 0.041700825 0.39468476 -0.6812976 0.18868698 0.4066344
0.103088506 0.040823147 0.40453884 -0.35957393 0.2782798 -0.44062847 0.32280785 0.115269296
-0.4164095 0.21760054 -0.12692046 -0.39028507 0.382172 -0.19160531 -0.4228748 0.1784068
0.4435897 -0.33648703 0.25229338 0.33152586 0.049908563 0.05604534 0.84166306 0.09231446
-0.19378535 -0.39783683 0.5436826 -0.037056163 0.097657524 -0.36565295 0.06130912 0.04477272
-0.57995945 -0.7649357 -0.14576407 0.296549 0.27853584 -0.32942575 -0.0029394943 0.12880132
0.34956288 0.1212374 -0.0029211673 0.13094541 0.15214816 0.013641171 -0.6368997 0.12688121
-0.12120409 -0.31954443 0.42462108 0.2997735 0.36067036 -0.5304977 -0.4760697 0.20030482
-0.87733144 0.13594079 -0.07007717 -0.4196778 -0.1452479 0.21056062 -0.12713267 -0.2435493
0.13743438 -0.4056884 -0.009204316 0.039780516 -0.42908877 -0.4408552 -0.27878344 -0.23431367
-0.13609748 -0.04091159 0.18201177 -0.48962075 0.08150866 0.27071282 0.10443979 -0.09719016
-0.23508707 -0.17494652 -0.28824273 0.49053302 0.25629207 -0.5669893 -0.16977565 -0.194169
0.29902452 0.42890364 0.042480655 -0.515574 0.42809466 -0.059433557 -0.22698528 -0.10254872
0.29256907 0.016273491 -0.045979448 -0.8842572 -0.11178843 0.16821088 -0.6229889 0.17168672
0.046155043 0.025841897 -0.50517833 0.4060702 0.21449497 -0.18155941 -0.03642003 -0.4256644
0.0054732836 0.33997795 0.06736477 0.3184876 -0.013153068 0.1542604 -0.8021995 -0.5124608
-0.1883359 0.030353189 -0.051775422 -0.10422342 -0.07755046 -0.12430173 0.18786481 -0.4101332
0.32725456 0.060582507 -0.010367343 0.06747097 -0.019311154 -0.3040785 -0.116827056 0.5176856
0.39388797 -0.504088 0.6283221 0.3078911 0.27479836 0.013320786 -0.28087816 -0.31298095
-0.19919674 -0.060195006 0.48310047 0.3889648 0.6381242 -0.022792652 -0.24392107 -0.062135734
-0.14703465 -0.637373 -0.37489507 -0.2573755 -0.11038524 0.46033224 -0.20850547 0.32771677
0.6047718 -0.1948914 0.062614255 -0.22867587 -0.025386987 -0.3028126 0.085114285 0.35512254
0.09547833 0.5685403 -0.6512866 -0.18130404 -0.4557753 0.056562465 -0.11234217 -0.52146864
0.39170733 -0.21270868 0.07021763 -0.59207505 -0.2954167 -0.11977129 0.030084759 -0.057695996
-0.12200895 0.18966104 0.2448444 -0.3942284 -0.094187185 0.37743813 -0.40787974 -0.3592124
-0.40468967 0.24522169 -0.34868062 -0.44143668 -0.1554213 -0.030009989 -0.25506604 0.1320046
-0.22281933 -0.29831186 0.10419095 0.0638633 0.68725663 0.0017263668 0.11480905 -0.4336052
0.02918314 0.052419007 -0.22478798 0.41189128 -0.13720647 -0.17283918 -0.022581898 0.66548723
-0.474178 -0.23195739 -0.59407413 0.19006777 -0.005256225 -0.4130166 0.53913254 -0.32651892
0.32470158 -0.09143531 -0.6873066 -0.053372122 0.19025752 -0.17565182 0.24682155 0.46580866
00000000: d8b5 073e bae8 27be 4f0d 26bf b6b0 9c3d
00000010: 596a d5be 2e39 083f 0177 1a3e 45c4 9f3e
00000020: 898a 87bd c4fd 12bf 4c61 78be ed11 763e
00000030: f5b3 4d3e ab2b c83e 138f c9be 7405 7e3e
00000040: 697f 24be 6b50 42be 7b62 28be 7cce 2a3d
00000050: 1f14 ca3e 8569 2ebf 2937 413e 6232 d03e
00000060: 1120 d33d 2c36 273d b71f cf3e 131a b8be
00000070: b17a 8e3e 0e9a e1be 1247 a53e 4f12 ec3d
00000080: a033 d5be add2 5e3e 70f7 01be 72d3 c7be
00000090: 0cac c33e 2f34 44be 0c83 d8be 46b0 363e
000000a0: 301e e33e 0748 acbe 992c 813e c2bd a93e
000000b0: ec6c 4c3d cc8f 653d 3b77 573f 5d0f bd3d
000000c0: ab6f 46be 45b1 cbbe c82e 0b3f 34c8 17bd
000000d0: ab00 c83d dd36 bbbe 461f 7b3d 9a63 373d
000000e0: 3978 14bf d3d2 43bf 2d43 15be 45d5 973e
000000f0: 409c 8e3e 7eaa a8be 88a4 40bb 7ee4 033e
00000100: e8f9 b23e 504b f83d 0e71 3fbb 8e16 063e
00000110: bacc 1b3e 387f 5f3c dc0b 23bf 26ed 013e
00000120: da39 f8bd 549b a3be ef67 d93e ea7b 993e
00000130: c9a9 b83e b3ce 07bf 68bf f3be b51c 4d3e
00000140: cb98 60bf 1034 0b3e 9f84 8fbd 02e0 d6be
00000150: debb 14be 349d 573e 112f 02be fd64 79be
00000160: 99bb 0c3e 64b6 cfbe b3cd 16bc e5f0 223d
00000170: 86b1 dbbe c6b7 e1be b4bc 8ebe ecef 6fbe
00000180: 235d 0bbe e992 27bd 4b61 3a3e 92af fabe
00000190: 03ee a63d df9a 8a3e 87e4 d53d a20b c7bd
000001a0: aaba 70be 2e25 33be 8d94 93be 2527 fb3e
000001b0: b738 833e 3626 11bf abd9 2dbe 3dd4 46be
000001c0: be19 993e 4299 db3e 3200 2e3d a8fc 03bf
000001d0: 392f db3e 9a70 73bd d46e 68be 1005 d2bd
000001e0: 9dcb 953e fc4f 853c f254 3cbd ae5e 62bf
000001f0: 55f1 e4bd 793f 2c3e 337c 1fbf a5ce 2f3e
00000200: 120d 3d3d 63b2 d33c 5e53 01bf 6fe8 cf3e
00000210: 92a4 5b3e b6ea 39be 2b2d 15bd aff0 d9be
00000220: 3b59 b33b 9711 ae3e 8af6 893d cf10 a33e
00000230: f77f 57bc 70f6 1d3e f25c 4dbf a230 03bf
00000240: 20db 40be 40a7 f83c 7712 54bd 1773 d5bd
00000250: c7d2 9ebd e891 febd a25f 403e fbfc d1be
00000260: e98d a73e 5d25 783d cadb 29bc 382e 8a3d
00000270: 6d32 9ebc 2db0 9bbe 0643 efbd 0b87 043f
00000280: afab c93e e90b 01bf b8d9 203f e7a3 9d3e
00000290: 5fb2 8c3e 6d3f 5a3c 43cf 8fbe 0a3f a0be
000002a0: 3bfa 4bbe 0a8f 76bd f258 f73e 6526 c73e
000002b0: 1c5c 233f a8b7 babc 72c6 79be 0a82 7ebd
000002c0: 4090 16be e02a 23bf 3ff2 bfbe b9c6 83be
000002d0: a811 e2bd abb0 eb3e 7582 55be 7eca a73e
000002e0: 53d2 1a3f 9c91 47be e73b 803d 022a 6abe
000002f0: 5ff8 cfbc 410a 9bbe 6650 ae3d 9fd2 b53e
00000300: 258a c33d db8b 113f b8ba 26bf c4a7 39be
00000310: 615b e9be 0bae 673d a713 e6bd f87e 05bf
00000320: dd8d c83e 4ed0 59be 43ce 8f3d 3b92 17bf
00000330: dc40 97be a64a f5bd 5074 f63c a352 6cbd
00000340: d4df f9bd 8136 423e 7eb8 7a3e 4ed8 c9be
00000350: 36e5 c0bd 923f c13e 9dd5 d0be b0ea b7be
00000360: 7c33 cfbe 651b 7b3e 4486 b2be fd03 e2be
00000370: c326 1fbe 82d7 f5bc 0498 82be 372c 073e
00000380: c02a 64be 55bc 98be 1162 d53d c3ca 823d
00000390: 0df0 2f3f 4247 e23a 0221 eb3d 8001 debe
000003a0: 7b11 ef3c 50b5 563d d22e 66be 6ae3 d23e
000003b0: da7f 0cbe c1fc 30be acfd b8bc 5f5d 2a3f
000003c0: 75c7 f2be 3d86 6dbe 3e15 18bf 20a1 423e
000003d0: 693c acbb e976 d3be 9704 0a3f 7d2d a7be
000003e0: 493f a63e 7042 bbbd 53f3 2fbf ba9c 5abd
000003f0: ded2 423e 12de 33be cabe 7c3e 797e ee3e

model.0.bias f4 [64]
-0.4880034 -0.14390749 -0.6199847 -0.52602744 -0.16751035 -0.092201024 0.024029307 -0.76477116
-0.12371827 0.39311177 0.5018035 0.36143047 -0.1417743 -0.7036775 -0.5275427 0.24399784
-0.039628543 -0.69350755 -0.1855558 -0.13740066 0.3000817 0.17765144 -0.47715408 0.118097484
-0.07988293 -0.21560542 -0.28947723 0.23963943 -0.0070095146 -0.51399994 -0.24650055 -0.123422004
0.41722378 -0.23565371 -0.46260813 0.46614155 -0.2070862 0.3122784 0.4470356 -0.42450225
0.33168998 -0.31167528 -0.17904083 0.14012517 -0.32858118 0.25572202 0.048631884 -0.47525567
0.21618041 0.49573717 0.04690601 -0.38485068 -0.32972482 -0.12959065 -0.32100332 -0.4666402
-0.8455694 -0.12638167 -0.14019626 0.28162166 0.06582381 -0.13362366 -0.03420932 -0.723502
00000000: 95db f9be 7c5c 13be 51b7 1ebf bca9 06bf
00000010: d587 2bbe e4d3 bcbd 1cd9 c43c 0bc8 43bf
00000020: 0160 fdbd f245 c93e 3276 003f 6a0d b93e
00000030: 482d 11be 3524 34bf 0a0d 07bf 92da 793e
00000040: 8a51 22bd b689 31bf 5702 3ebe c2b2 0cbe
00000050: 4fa4 993e 42ea 353e 8a4d f4be 18dd f13d
00000060: a999 a3bd abc7 5cbe 5c36 94be 0a64 753e
00000070: 12b0 e5bb 8095 03bf a46a 7cbe adc4 fcbd
00000080: 5b9e d53e 354f 71be f9da ecbe 1baa ee3e
00000090: 680e 54be f4e2 9f3e dae1 e43e 5c58 d9be
000000a0: 45d3 a93e e793 9fbe 7b56 37be f97c 0f3e
000000b0: cb3b a8be ffed 823e 3a32 473d b654 f3be
000000c0: 665e 5d3e 43d1 fd3e 8420 403d 260b c5be
000000d0: b1d1 a8be 69b3 04be 8c5a a4be 77eb eebe
000000e0: 3c77 58bf 326a 01be 9c8f 0fbe b730 903e
000000f0: a2ce 863d a4d4 08be 121f 0cbd 6d37 39bf

model.2.weight f4 [32, 64]
0.5144415 0.24318928 0.4400514 0.29768637 0.086714834 0.31981692 0.47021732 0.8816626
-0.25626427 0.15971215 0.14322744 0.14565729 0.08556138 0.20403251 0.3795673 -0.03968371
0.11036281 0.33627304 -0.038353175 0.15659836 0.1784153 0.10424511 0.6410222 -0.08543179
0.0863279 0.20793018 0.11580973 0.13056116 -0.26001313 0.369101 0.063629195 -0.24265796
0.122886285 0.09073307 0.15162091 0.16022247 -0.32528675 0.14903364 0.03168538 0.086158924
0.20711227 0.6887891 -0.281347 0.1530263 0.11952327 0.2517806 -0.14081499 0.13091421
0.13195245 -0.17315026 0.30429703 0.604346 0.08341814 0.23588507 0.19149792 0.27637273
0.70956427 -0.15846589 0.2414468 0.08506829 0.18587132 0.27287412 -0.070531934 0.75910115
0.5560869 0.19977218 0.33194548 0.27971002 -0.022272239 0.34456804 0.24058309 0.8966179
-0.37387347 -0.090784185 0.081881054 -0.15413636 0.35784233 0.16207926 0.38384202 0.055377275
0.037334863 0.57768226 0.002254575 0.097524226 -0.036990877 0.22046846 0.6440769 0.059268735
0.019710328 0.05070221 0.250099 0.13650934 -0.14766632 0.24349245 0.0798488 -0.12680852
-0.4076862 -0.19678782 0.14596087 0.02405751 -0.14049193 0.09496708 0.054240003 0.41834113
0.116527036 0.3404406 -0.20991053 -0.2270005 0.17564642 0.15369493 0.02127168 0.3441546
-0.17285214 -0.52680665 0.14987382 0.6253711 0.026120745 0.18507107 0.21791007 0.49228963
0.79668915 -0.49662665 0.029066589 0.037761744 -0.13887624 0.12257745 0.061276987 0.56470764
0.40698573 0.26849845 0.47419932 0.25687328 0.18025829 0.1117683 0.35940203 0.77382356
-0.2708763 0.16638295 0.2577914 -0.026820986 -0.03514053 0.12013006 0.26811972 -0.032258604
0.19204374 0.33950981 0.0786255 0.091593824 -0.0041925353 0.2753297 0.7385382 0.08981775
0.035749283 0.07905771 0.19168599 0.11379402 -0.21632662 0.3952642 -0.1597206 -0.13909596
0.13757023 -0.039874274 0.2620255 0.29341778 -0.223395 0.018289313 -0.0595592 0.0020808866
0.08798441 0.582846 -0.20931086 -0.056055684 0.096115366 0.20524393 -0.07300413 0.12923557
0.3126388 -0.12654711 0.15420936 0.50507027 -0.054961663 0.19761267 0.18305057 0.16381635
0.8328687 -0.18531136 0.2138338 0.094075836 0.036690656 0.14613782 0.03306225 0.6678078
0.1805268 0.045989428 0.08461093 -0.7357429 -1.697265 -0.45331115 -0.130165 -0.16316487
-0.70482194 -0.5778565 -0.03389843 -0.019211473 -0.5724534 -0.9839333 -0.14387462 -1.2860855
-0.5542714 -1.5935508 -0.67405313 0.017129904 -1.0931515 -1.5831918 -1.1249443 -1.2189461
-0.9949831 0.104114816 -0.90926504 -0.729241 -1.5025092 -0.92708695 0.13204047 -0.49668157
0.21152201 -0.21687004 -1.1566507 -0.39537236 -0.32403913 -0.34541655 -1.380268 -1.1516106
-0.599422 -0.25663877 -0.04187996 -0.6494917 0.34917063 0.49165842 -1.2661544 -0.020449964
0.46618822 0.11367348 0.24392784 -0.38812232 0.45454672 0.46787795 -1.5518457 -1.2940493
-1.059841 -0.10783622 0.38327828 -0.9307185 -2.3940163 0.25688303 -0.4393196 -0.07854066
00000000: 70b2 033f 9c06 793e 6b4e e13e 596a 983e
00000010: 8c97 b13d 0bbf a33e 53c0 f03e a4b4 613f
00000020: 1235 83be 958b 233e 37aa 123e 2f27 153e
00000030: ce3a af3d e6ed 503e a556 c23e 638b 22bd
00000040: e605 e23d fb2b ac3e 3818 1dbd 525b 203e
00000050: 80b2 363e 767e d53d 081a 243f ddf6 aebd
00000060: afcc b03d a6eb 543e a72d ed3d d3b1 053e
00000070: 7120 85be cefa bc3e 0650 823d 547b 78be
00000080: ceab fb3d 43d2 b93d 8342 1b3e 5c11 243e
00000090: fc8b a6be 469c 183e 87c8 013d 1774 b03d
000000a0: 3d15 543e 7c54 303f b70c 90be edb2 1c3e
000000b0: 9ec8 f43d 63e9 803e ce31 10be 600e 063e
000000c0: 8b1e 073e 4d4e 31be d2cc 9b3e 6bb6 1a3f
000000d0: 21d7 aa3d db8b 713e 0818 443e ba80 8d3e
000000e0: 01a6 353f e244 22be d43d 773e 4938 ae3d
000000f0: 0d55 3e3e 28b6 8b3e 0c73 90bd 7454 423f
00000100: b65b 0e3f 1491 4c3e c2f4 a93e 2736 8f3e
00000110: 4574 b6bc 396b b03e 6a5b 763e c088 653f
00000120: 586c bfbe 0fed b9bd 41b1 a73d ecd5 1dbe
00000130: 1c37 b73e 1bf8 253e f186 c43e 48d3 623d
00000140: 71ec 183d fce2 133f 7ec1 133b c8ba c73d
00000150: bf83 17bd 7cc2 613e 39e2 243f c6c3 723d
00000160: 8e77 a13c 1fad 4f3d fa0c 803e 1bc9 0b3e
00000170: d735 17be 1656 793e c587 a33d 18da 01be
00000180: 3fbc d0be bf82 49be c476 153e 4114 c53c
00000190: 1edd 0fbe 1a7e c23d c42a 5e3d cf30 d63e
000001a0: baa5 ee3d 3b4e ae3e c9f2 56be d272 68be
000001b0: a8dc 333e 3462 1d3e f241 ae3c 0835 b03e
000001c0: 2700 31be cddc 06bf 8678 193e 5218 203f
000001d0: 2cfb d53c 4583 3d3e d123 5f3e 630d fc3e
000001e0: d2f3 4b3f d945 febe 0e1d ee3c 0fac 1a3d
000001f0: 9335 0ebe e309 fb3d 94fd 7a3d ae90 103f
00000200: 6f60 d03e a178 893e 41ca f23e e584 833e
00000210: a195 383e c7e6 e43d 8b03 b83e 4d19 463f
00000220: 4cb0 8abe 4b60 2a3e 3cfd 833e afb7 dbbc
00000230: 84ef 0fbd c006 f63d fd46 893e 9921 04bd
00000240: 1da7 443e 3bd4 ad3e 6806 a13d 8b95 bb3d
00000250: 8961 89bb 04f8 8c3e d710 3d3f 5ef2 b73d
00000260: d76d 123d 02e9 a13d 5549 443e d70c e93d
00000270: ba84 5dbe 1260 ca3e cc8d 23be 2c6f 0ebe
00000280: 36df 0c3e 3553 23bd 3528 863e db3a 963e
00000290: a9c1 64be 78d3 953c 59f4 73bd 7c5f 083b
000002a0: 2c31 b43d 6535 153f 9655 56be a59a 65bd
000002b0: 22d8 c43d 772b 523e 3083 95bd 5456 043e
000002c0: 3112 a03e 9195 01be 0fe9 1d3e 494c 013f
000002d0: 7b1f 61bd fa5a 4a3e 9c71 3b3e 79bf 273e
000002e0: e236 553f 43c2 3dbe 3ff7 5a3e d5aa c03d
000002f0: f148 163d 27a5 153e 486c 073d 74f5 2a3f
00000300: 04dc 383e 695f 3c3d 7f48 ad3d a659 3cbf
00000310: fb3f d9bf 6618 e8be f949 05be b114 27be
00000320: 366f 34bf 67ee 13bf 15d9 0abd 6161 9dbc
00000330: 4e8c 12bf 0ee3 7bbf de53 13be 739e a4bf
00000340: bbe4 0dbf 79f9 cbbf bf8e 2cbf 0354 8c3c
00000350: 63ec 8bbf 07a6 cabf 2dfe 8fbf 6d06 9cbf
00000360: 36b7 7ebf 263a d53d 98c5 68bf 8aaf 3abf
00000370: 3952 c0bf 9255 6dbf 9e35 073e 0c4d febe
00000380: 3a99 583e 2e13 5ebe 210d 94bf 3f6e cabe
00000390: 75e8 a5be 70da b0be 9fac b0bf fa67 93bf
000003a0: b873 19bf 2866 83be 528a 2bbd 1745 26bf
000003b0: 7ec6 b23e a7ba fb3e 5911 a2bf af86 a7bc
000003c0: 39b0 ee3e a4cd e83d 38c8 793e f8b7 c6be
000003d0: 59ba e83e b38d ef3e e1a2 c6bf 68a3 a5bf
000003e0: dfa8 87bf 3cd9 dcbd 0d3d c43e 9143 6ebf
000003f0: 9037 19c0 2c86 833e 80ee e0be edd9 a0bd

model.2.bias f4 [32]
0.13930416 -0.2504359 0.10760523 0.28663406 0.055490952 0.00072873494 -0.06651375 0.15885898
-0.05093377 -0.030974353 0.08155085 0.019454239 0.0040861024 0.16231978 -0.07979956 -0.38391587
0.1989415 -0.016074946 -0.04540665 -0.30328473 0.037727103 -0.08303026 -0.21577132 -0.06828145
0.028706916 -5.7046323e-05 0.034318026 0.037078142 -0.7296104 0.2686231 0.009661944 -0.09046618
00000000: c0a5 0e3e 2239 80be 2160 dc3d b3c1 923e
00000010: 7b4a 633d 9308 3f3a 5c38 88bd eeab 223e
00000020: ee9f 50bd edbd fdbc 2204 a73d 7f5e 9f3c
00000030: b6e4 853b 2837 263e f46d a3bd 9f90 c4be
00000040: 52b7 4b3e 9baf 83bc 53fc 39bd 2348 9bbe
00000050: bc87 1a3d c50b aabd 28f3 5cbe 25d7 8bbd
00000060: c42a eb3c 0645 6fb8 0f91 0c3d 40df 173d
00000070: bfc7 3abf f888 893e 214d 1e3c 5546 b9bd

model.4.weight f4 [2, 32]
0.2310666 0.20157863 0.072599165 -0.681969 0.05017702 -0.12890777 -0.13064204 -0.7159594
0.14127797 0.22971994 0.042260293 0.04841161 -0.060811136 -0.79442066 -0.03189465 0.9107074
-0.925169 0.21986595 0.0653713 0.15286209 -0.06508643 -0.07276153 -0.108074464 0.18754846
0.21696782 0.084363 0.13112117 -0.088174 0.9263516 -0.823615 -0.025927957 0.109524526
-0.12434225 -0.1684998 -0.123696014 0.75082225 -0.22256449 -0.0014996446 -0.066788934 0.66831595
-0.17575419 -0.2706062 -0.2960575 -0.12781765 -0.19124965 0.57031155 0.09355217 -0.5870551
0.916848 0.036482275 0.051830277 -0.13824728 0.12268025 -0.054118942 -0.1117336 -0.11841515
-0.20700932 -0.1961079 -0.17667364 -0.027052993 -0.79788065 1.0249722 -0.0013027885 -0.22084619
00000000: b99c 6c3e a16a 4e3e dfae 943d 8595 2ebf
00000010: 6b86 4d3d 6600 04be 07c7 05be 1e49 37bf
00000020: 2cab 103e b43b 6b3e 2119 2d3d 414b 463d
00000030: 1915 79bd 275f 4bbf f7a3 02bd 1f24 693f
00000040: e0d7 6cbf 8a24 613e 63e1 853d e187 1c3e
00000050: 094c 85bd ff03 95bd 2556 ddbd b40c 403e
00000060: d02c 5e3e 82c6 ac3d a144 063e 9294 b4bd
00000070: 6125 6d3f 6fd8 52bf de66 d4bc 654e e03d
00000080: 26a7 febd 368b 2cbe 5654 fdbd e335 403f
00000090: f2e7 63be b98f c4ba a3c8 88bd c116 2b3f
000000a0: e8f8 33be e58c 8abe d994 97be a1e2 02be
000000b0: f3d6 43be f0ff 113f 4898 bf3d 3e49 16bf
000000c0: 8db6 6a3f 706e 153d fc4b 543d b290 0dbe
000000d0: c83f fb3d d3ab 5dbd 96d4 e4bd a483 f2bd
000000e0: 40fa 53be 82d0 48be efe9 34be 3d9e ddbc
000000f0: e841 4cbf 4a32 833f 54c2 aaba 8125 62be

model.4.bias f4 [2]
0.1101311 -0.19044858
00000000: 6a8c e13d f404 43be
