soil_model_20250710_150113.onnx (onnx, 13099 bytes, 6 tensors)

model.0.weight f4 [64, 9]
00000000: 24fd 133e bef2 64be 4c2d 1e3d d51f c0be
00000010: 32e6 80be 3c12 1cbe ead5 7b3d fb2c 92be
00000020: 0c6b 223f ced9 d5bc 05d2 bb3f edbf b1bd
00000030: 6ea6 50be de72 26bd d950 0ebe 4579 be3d
00000040: 94dc 85bd 1704 51bd d8ca 6dbd e5ff ad3e
00000050: cf90 2bbe 865a aa3e 96c3 8b3e 9262 9a3e
00000060: e9ba 4b3e 4c21 0f3f 89e1 b9be 5516 6bbf
00000070: 4c10 ee3e 80d5 80bc cfb3 e7bd 54ba 18bd
00000080: e6a6 93bb bc2e f53d 28e2 0b3f e247 993e
00000090: 05af f3bf cc48 21bf 4266 bbbd 5e64 32be
000000a0: 44cd 2c3c 163d 8bbe a501 8dbc 876c 1abd
000000b0: ca4e cbbd 9e6d 433e 6d5b 54be a244 02bf
000000c0: fa2d a6be 0306 12bf a4a3 babc 6115 283e
000000d0: f17e eebd 7604 2a3f b0a5 103f 2bcc 0abf
000000e0: a123 98be 8b39 8f3e 2f8d d8bd 25b4 24be
000000f0: 8018 e93d 035d bcbe 25d4 6dbe 52bd 663c
00000100: 549d 15be d9cb 843e 8e2f f03d c4c6 373e
00000110: 32da 8b3e b49e ec3d 44dd c4be d3c0 bcbf
00000120: 73ae e9be c448 2ebf 3949 783d bfc8 58be
00000130: e234 243d fa6b 44be e31f d7bb ca0b 823f
00000140: 2868 a63d 1cb9 773e aa08 bebe 0434 12be
00000150: adc0 523e 4597 35be f11c 763e b6b3 09be
00000160: ccf3 afbe a8f8 673d 84ae ecbd 84db a03f
00000170: b077 8abb 483b d0bc fba2 8dbe 13e8 52be
00000180: fa84 cabc b95d a03d ac12 2bbe dbbc dabe
00000190: c715 263f f845 f8be 69aa 923c 716a 433e
000001a0: 3009 bd3e 4350 873e 2803 8b3f 58eb 713e
000001b0: 0253 b13d 5302 a5bf 4005 ce3d 3692 14ba
000001c0: 5e8e 9f3d c71a e4be 2653 89bc e363 39be
000001d0: d0da 11bd 7fff 53be 0da9 173e c5be 483b
000001e0: ac57 e63e 3696 a5bf 85ef 48bb a1bd ddbd
000001f0: bca3 e83c 2470 0cbe 5da9 803f d022 b23e
00000200: 545a 10bd 4615 943e 6d3a a0bb fef9 ed3e
00000210: 41f8 4c3e bbcc 8c3f 5972 ae3e 52f6 9e3e
00000220: 4182 3fbf 2de3 f5bd e50a a9bd 411d 9b3e
00000230: 6402 39be b7d1 19be a980 22bf 7fb2 e0be
00000240: 352e 47be d976 adbf b2dd 353e 2b9c 8dbb
00000250: a080 ab37 94ea 623e 2ba9 8b3d 81e4 0bbe
00000260: e0dd 4f3e fb7c 7a3e c913 9cbc 8894 7fbe
00000270: 4ac9 39bf 112f 15bf c11a b6be cc23 4b3e
00000280: 89ab 4dbf 8b2c 813d fa19 393f cbb6 8d3e
00000290: 0726 a33e 3b28 b8be e180 863e 75e0 9b3e
000002a0: da60 18bd 6044 8cbd 698e 473d f21d 243f
000002b0: 6003 63bf f2d9 9e3d fa0b 49be a44c 95be
000002c0: 59c3 833d 5099 e9bb e595 db3e 219e 22be
000002d0: 74ba e5bf dcde 09be b082 22bd 6657 003e
000002e0: 4c9a c8bc 83e6 103e 3c3e 2abd 964b e9bd
000002f0: 279c 94bd 7c3c c73f e005 643e 1f4e 803d
00000300: 8b59 963d 3762 e5bd 0e77 e6bb e6da 833d
00000310: 5c14 09ba 7a8a 433c 30b1 87be 31b1 9cbe
00000320: 2c13 45bd 6f4c 0bbb a63b e7be 3931 263d
00000330: 8951 9fbd e81a d8be 3611 81bf d90f 11bf
00000340: a9c4 a53e 7c87 323e b03e 023e e447 c73e
00000350: b672 d93e 498e 3dbd 1931 9e3f 09d8 823e
00000360: 8c4a 4dbf cc8d 6f3e c9f2 123e 4081 b23e
00000370: 9265 29bf 4400 4bbe 1f87 923e b4e9 a7be
00000380: ee74 b0be fa13 82bd be9b 9cbe 255a 38be
00000390: 5b2e 083e 78b3 f6bd 5471 cbbd 702d 003e
000003a0: 0c4d 3c40 6476 893d 2d8b 01be f1af 2c3f
000003b0: 3c18 8a3e ff9b e03e 864e df3e f8d5 ef3d
000003c0: 55e4 fb3d 2d48 bbbe 22d4 433f b2b7 133f
000003d0: 3df3 5c3e 6b5d 513e eed4 34be 086b 443e
000003e0: 1ac1 d93d 9dee 173e 5a94 6cbe 5e04 ffbe
000003f0: 23c9 8ebf 3887 5e3e 8f5c 93bd efdb 10bd
0.14452034 -0.22358224 0.038617417 -0.37524286 -0.25175625 -0.15241331 0.0614833 -0.28549942
0.6344459 -0.026104834 1.4673468 -0.08679185 -0.20375988 -0.04063689 -0.13898028 0.09300474
-0.065362126 -0.05102929 -0.058054775 0.33984295 -0.16754459 0.3327219 0.27297658 0.30153328
0.1989552 0.5591018 -0.36304882 -0.9183095 0.4649681 -0.015726805 -0.11313593 -0.03728707
-0.00450598 0.119718045 0.5464196 0.29937655 -1.9037787 -0.63001704 -0.091503635 -0.174211
0.010546986 -0.27195042 -0.017212698 -0.037701156 -0.09927137 0.19084784 -0.20738001 -0.50885975
-0.32456952 -0.57040423 -0.022783108 0.16414405 -0.11645306 0.66413057 0.5650282 -0.54217786
-0.29714683 0.2797359 -0.10573804 -0.16084345 0.11381626 -0.36789712 -0.23225458 0.014083223
-0.14610797 0.25936773 0.1172782 0.17946917 0.27314907 0.11553708 -0.38450062 -1.4746345
-0.45640907 -0.6807978 0.060616706 -0.21170329 0.040089495 -0.19181815 -0.0065650805 1.0159848
0.08125335 0.24191707 -0.37115985 -0.14277655 0.20581312 -0.17733486 0.24034478 -0.1344746
-0.3436569 0.05663362 -0.11556724 1.2566991 -0.0042256936 -0.025418893 -0.27663407 -0.20596342
-0.024721611 0.07830376 -0.16706342 -0.4272221 0.6487698 -0.48490882 0.017903524 0.19083573
0.36921072 0.26428422 1.0860338 0.23624933 0.086584106 -1.2891334 0.10059595 -0.0005667539
0.07790826 -0.4455168 -0.016763281 -0.1810451 -0.035609066 -0.20702933 0.14810582 0.0030631286
0.44988763 -1.2936466 -0.0030660343 -0.108271845 0.028398387 -0.13714653 1.0051686 0.34792185
-0.035242394 0.2892248 -0.0048897774 0.4647979 0.20016576 1.0999979 0.34071615 0.31047302
-0.74808127 -0.12006221 -0.08254031 0.30295756 -0.18067318 -0.15021406 -0.6347757 -0.43886182
-0.1945122 -1.3551894 0.17760351 -0.004321595 2.0444684e-05 0.22159797 0.068193756 -0.13661386
0.20299482 0.24461739 -0.019052403 -0.24959004 -0.7257277 -0.5827494 -0.35567287 0.19837874
-0.80339867 0.06307324 0.7230526 0.27678522 0.3186495 -0.35968193 0.26270202 0.30444685
-0.03720174 -0.06848979 0.048719797 0.6410819 -0.88677025 0.077564135 -0.19633475 -0.29160035
0.06433744 -0.007128872 0.42887798 -0.15880634 -1.7947526 -0.1346392 -0.039675415 0.1253334
-0.024487637 0.14150433 -0.041563258 -0.1139137 -0.07256346 1.5565333 0.22267866 0.062649004
0.07341298 -0.112003736 -0.0070332354 0.06438236 -0.0005229169 0.011934871 -0.2650237 -0.30603936
-0.048113987 -0.0021255275 -0.45162696 0.040574286 -0.077792235 -0.42208028 -1.0083377 -0.56664807
0.32376602 0.17434496 0.12719226 0.38922036 0.4247033 -0.04627827 1.2358733 0.25555447
-0.80191875 0.23393935 0.14350428 0.34864235 -0.6617061 -0.1982432 0.28618714 -0.3279549
-0.3446421 -0.063514665 -0.30587572 -0.18003137 0.13298933 -0.1204595 -0.09933725 0.12517333
2.9422026 0.06712034 -0.12650748 0.67455965 0.26971614 0.43869016 0.43614596 0.11710733
0.1229941 -0.36578503 0.76495564 0.5770217 0.21577163 0.20445792 -0.17659351 0.19181454
0.10632534 0.14837117 -0.23103467 -0.4980802 -1.1155132 0.2173127 -0.071953885 -0.035365995

model.0.bias f4 [64]
00000000: 23e7 203f ba8b fd3d 2f38 483d 9f29 e23e
00000010: a8bb 00bf abad d9bc 8cf9 173e 65e3 2ebf
00000020: 8e08 4dbc 0b9f c0bd ed27 d33e aa2e 02bf
00000030: 92ec f03e ad4d 69be ae25 97be f593 123f
00000040: 27a3 a33d d0c4 4bbe e4d8 00bf d027 913e
00000050: d3a7 74bf de16 bdbe f303 233d b91e c7be
00000060: 4375 a33e f2cf a63d 5a8b 293f 7783 093f
00000070: 0a91 7d3e a871 1d3f 9f04 493e 3d46 86be
00000080: ff05 a53c b3a7 8d3d b4fc e33e 284d 3b3f
00000090: ff51 143f 7f5a 14bf 8792 093f acdd 52bd
000000a0: 6a03 5a3f 9517 403d 72a5 ccbd 44dd b53e
000000b0: 56e6 10be eb15 353f 4b07 cf3e 115c ce3e
000000c0: 1061 15bf 0a43 4cbe 9f39 503f 5928 a5be
000000d0: d15e 4d3f 8dc5 abbe 2008 1c3e 71e7 3a3f
000000e0: 3e35 7b3e 28d9 813f e371 a53e 9312 e83e
000000f0: 0ca2 44be 0c57 2c3f c54b 9c3d 577f 163f
0.62852687 0.12380166 0.048881706 0.4417238 -0.5028634 -0.02657207 0.14841288 -0.68315727
-0.012514247 -0.09405335 0.41241398 -0.50852454 0.4705549 -0.22783537 -0.29520935 0.57257015
0.07990103 -0.19899297 -0.5033095 0.28350687 -0.9556858 -0.3693151 0.03979869 -0.38890627
0.319254 0.08145131 0.6622826 0.53716224 0.2476236 0.6150155 0.19630669 -0.26225463
0.02014446 0.06916752 0.44528735 0.73164606 0.57937616 -0.57950586 0.5373921 -0.051480934
0.8516146 0.04689749 -0.09992494 0.35520375 -0.14150366 0.7073657 0.40435252 0.40304616
-0.5835123 -0.19947448 0.8133792 -0.32257345 0.80222803 -0.33549157 0.15237474 0.730094
0.24532029 1.0144396 0.3231345 0.4532667 -0.19202441 0.67320323 0.076316394 0.58788055

model.2.weight f4 [32, 64]
00000000: d9ee ae3e b878 20bf 5763 b43d 2034 ae3e
00000010: 85a1 84be b25c 54bd 3a78 c9bd c523 27bf
00000020: ee68 803e aabe a8bd aba3 13be cddb d93e
00000030: 71d7 2d3f ef0d 023f 79dd 133f 056f 903e
00000040: 1333 993e 4db3 a9be e512 3a3d 983f da3e
00000050: 72a8 8fbe 3a3d 5b3e 4e88 90be 6911 503e
00000060: 712d a53e fc5d 5d3f d7e4 64be 8b82 a43d
00000070: 9850 a43d 2cd8 9c3d f83c fcbd 2bde b73d
00000080: 1313 113d f003 4abe 4753 063f 59e6 913e
00000090: 22cf 63be 98e4 89be e092 c13e 2b33 d0bd
000000a0: 87bd 063e 4664 06bb b2c6 8abd 5e76 b5bd
000000b0: 9afe b4be 5547 a63e daff 1d3f 2d77 f23e
000000c0: 4a21 46bf 053d 5cbf 503c 9c3e cc0a b13d
000000d0: f0ba 943e 187d 73bf b738 163f 1671 1e3e
000000e0: 73d6 983d 0242 0e3e d32a 07bf 976a 0a3f
000000f0: c040 ffbe 07c6 3e3f cdc1 373e 9783 be3d
00000100: a4a7 bd3d 06be 87be dfec 0c3e 8e31 02bc
00000110: 00b5 1abe 9d19 da3d 5dc8 d83e df15 923c
00000120: f140 cabe 9dd8 fb3c 3a40 84bd 3ca0 cabd
00000130: 30c4 8d3e d364 d43c a6ac 66be 0ea9 8a3e
00000140: 46d6 e0bd 574b a0be 4963 0fbe 92c3 43be
00000150: 6d42 28bf e674 7a3f ba11 123e 1ff7 12bf
00000160: bb55 6a3e 1430 89bf c7c5 403e e8b2 0a3e
00000170: c198 b33e 0bed 243e 36d3 823d 62f0 3cbe
00000180: 5dd1 163e b1c4 8b3e a5cf 713e 82b9 843b
00000190: 175d 2b3e 082e 90bd 8e95 533d 638f 1abe
000001a0: f60b bc3e 9722 503e 0a5a 80be b469 293e
000001b0: 7ea9 23be b3ec 563e 9b84 1bbe dacb 123d
000001c0: fd95 5bbf 1fba 74be 4f9e 9c3e ed13 23bd
000001d0: 05ff 9b3c ec6c 70bf 87db 2fbf e3bc 1f3e
000001e0: f4ea 183d e77b 933e c300 3f3d 4ab2 eb3c
000001f0: b853 dfbb 2ddb febd 96c5 01bd b9bf bebd
00000200: a6f4 53bc b568 813c 191f 1d3d d4f7 023e
00000210: c6ab e8be 2508 20be 736c 01be 51d9 d9be
00000220: 75ab 7ebd 6b37 53be 6bde 913e eeca 743e
00000230: dc5f 2fbf a7a7 cf3d 4f3b 1f3e 816a 57bd
00000240: 6e16 bbbe 3b98 c43e 99ea cdbb 506b b1be
00000250: 7238 11be 47b0 39be e2f8 e5bc 023c 983d
00000260: 5330 b33d 6cc8 563d 2313 ac3d cdd1 75bb
00000270: 05ed aebd 5fee 5c3e 056f 2e3d 929a 163d
00000280: 1942 4ebf afdd 8bbc fb2f 66bf c641 0e3e
00000290: 8d14 913c f4d6 ea3b f14e e7bb feeb 153e
000002a0: 7975 223d f88a a23c 076d dc3d c1b4 363e
000002b0: e967 8b3e 24c7 343d 327e ccbe ae2d 7abf
000002c0: 63e1 8a3e d61c ec3e a34f 2f3e fdb4 2dbc
000002d0: 6c05 83bc 59b2 cd3c 20e0 5a3d 5e1e ee3d
000002e0: d3bf 2e3e ecaf 793c 71bc cf3d c8f6 8fbf
000002f0: 1042 783e 767c 9a3e e30e 393e d3ba ae3e
00000300: f93a 0b3e af72 c6bb ceb8 9b3e ae13 bd3d
00000310: 8669 893e 1af7 823e 8b9d 583e 2b0d 803f
00000320: 151a 1bbf 47a5 9b3e 6e36 a8bd 36b0 463e
00000330: 2078 ac3e 1552 7abd 3548 9e3b a6be ea3d
00000340: db6c f33d a5a6 1f3f 0301 0dbe 1b86 aabe
00000350: 9e8c 163f 40d1 ac3e 3442 d53e aaf5 c7bd
00000360: ce9a a83d deea 9fbf 006c 053e 067f bd3c
00000370: 5681 163e 18a7 943d 3ac1 393e 57a3 153f
00000380: 1120 953e 9e06 e63e f884 1d3e 8473 62be
00000390: 2f87 3b3e aae2 20be d241 903e 971f 963b
000003a0: c1c7 693e e3b5 ba3d 83da c2bd a766 7ebc
000003b0: 807a a8be e875 56be 7017 0bbe 2627 de3d
000003c0: d9ea fd3e e658 cbbe d0b0 163e 0a98 773d
000003d0: 1987 063c 5a67 913d b9de acbe 9edc 453d
000003e0: 01ea f13c 5d0e 00be 5748 05be 4389 943d
000003f0: 6cab 603e 44e0 cfbe a9e2 0bbe 4d47 3c3e
0.341666 -0.626842 0.0880801 0.34024143 -0.2590448 -0.051846214 -0.098373845 -0.65288955
0.25080055 -0.08239491 -0.14417903 0.42550507 0.6790686 0.5080251 0.57759815 0.282097
0.2992178 -0.33144608 0.045428175 0.42626643 -0.280582 0.21410075 -0.28228992 0.20319141
0.32261232 0.86471534 -0.2235292 0.080327116 0.080231845 0.07658419 -0.12316316 0.08977922
0.03541858 -0.19728065 0.5247082 0.28496054 -0.22246984 -0.26932216 0.3780737 -0.101660095
0.13158236 -0.0020506545 -0.067761794 -0.088604674 -0.35350496 0.32476297 0.61718524 0.4735655
-0.77394545 -0.8603061 0.30514765 0.086446375 0.29048872 -0.9511275 0.5868029 0.15472826
0.07462778 0.13892367 -0.5279972 0.54068893 -0.49854088 0.74520916 0.17945023 0.093024425
0.092604905 -0.26512164 0.13762234 -0.007946385 -0.15108109 0.106494166 0.42340365 0.017832695
-0.3950267 0.030742938 -0.06457563 -0.098938435 0.27688742 0.025926983 -0.22526798 0.27082103
-0.109783694 -0.3130748 -0.14002718 -0.19117573 -0.6572636 0.9783462 0.14264575 -0.57408327
0.22884266 -1.0717797 0.18825446 0.1354481 0.3507748 0.1610605 0.063879415 -0.18451074
0.14728303 0.272985 0.23614366 0.0040504346 0.1673473 -0.0704003 0.0516563 -0.1509376
0.36727875 0.20325695 -0.25068694 0.16544229 -0.15982625 0.20988731 -0.15187304 0.03583894
-0.8577574 -0.23899125 0.3058953 -0.039813925 0.019042501 -0.939162 -0.6869435 0.15599398
0.037333444 0.28805467 0.046631586 0.028771538 -0.0068154 -0.12444148 -0.031682573 -0.09313912
-0.012936747 0.015796999 0.038359735 0.12789851 -0.45443553 -0.15628107 -0.12639026 -0.42548612
-0.062175233 -0.20626609 0.28490004 0.23905537 -0.68505645 0.10139399 0.15549968 -0.052591804
-0.3654055 0.38397393 -0.0062840697 -0.34652185 -0.14181688 -0.1813365 -0.028072778 0.074333206
0.087494515 0.05243723 0.084020875 -0.0037509084 -0.08541302 0.21575306 0.042586345 0.036768503
-0.80569607 -0.01707348 -0.8991696 0.13892278 0.017709995 0.0071667377 -0.007058971 0.14640805
0.039662812 0.019841656 0.10762983 0.1784239 0.27227715 0.044135228 -0.3994003 -0.9772595
0.2712508 0.4611575 0.17120223 -0.010602233 -0.015993796 0.025109457 0.0534364 0.11626886
0.17065363 0.015239697 0.10143364 -1.1247187 0.24243951 0.3017308 0.18072085 0.3412691
0.13596715 -0.006056152 0.30414432 0.09232269 0.2683832 0.2557915 0.21153848 1.0004019
-0.60586673 0.30399534 -0.08213507 0.19403157 0.33685398 -0.061113436 0.004830385 0.114621446
0.11885997 0.62363654 -0.13769917 -0.3330544 0.58808315 0.33753395 0.4165207 -0.097636536
0.08232652 -1.2493551 0.1302948 0.023131859 0.14697775 0.07258433 0.18140116 0.5845236
0.29126027 0.44926924 0.15382755 -0.22114378 0.18313287 -0.15711465 0.28175217 0.0045814025
0.22830106 0.091167234 -0.09514334 -0.015527404 -0.3290596 -0.20943415 -0.1358316 0.10847311
0.49593237 -0.39716262 0.14715886 0.06044773 0.008210921 0.07099791 -0.33763674 0.0483061
0.029530527 -0.12505479 -0.13015877 0.07252743 0.21940392 -0.4060079 -0.13660683 0.18386574

model.2.bias f4 [32]
00000000: 4056 f33e 8253 623e c08c 463d b0a1 383e
00000010: 2ace 343d 63d0 d5be acfc 0e3c 755a 373d
00000020: 1f60 8b3d 2bab 543e cadf 0abd ed37 7a3b
00000030: 4504 423e 3c93 b03e 9a02 91be 7e44 f7bd
00000040: 34d5 ab3d 365b 60bd 26b0 3bbe 6428 623e
00000050: e3e4 ecbe e288 c93e f512 1abf 0a2c 58be
00000060: 01f3 e23d aca1 733e 8aec 0cbe 6c2a 8c3e
00000070: e221 9fbe 9c5b 7b3e 473d 073e 7371 843e
0.4752674 0.22102168 0.048474073 0.18030429 0.044141926 -0.4176055 0.008727234 0.044764
0.06805443 0.2076842 -0.033904828 0.0038180307 0.18946941 0.3448733 -0.28322297 -0.12073611
0.08390275 -0.054774486 -0.18328914 0.2208572 -0.46268377 0.39362246 -0.60185176 -0.2111055
0.110815056 0.23792142 -0.13762107 0.27376115 -0.31080538 0.24546665 0.13206969 0.25867805

model.4.weight f4 [10, 32]
00000000: ccaf 523e f720 89c0 e43f c2bf 1957 4ebe
00000010: 88c2 793e bc38 bebf 0722 97bd 98fd 01bf
00000020: 9c1b 293e f710 313e cf30 5ebd ec34 173f
00000030: 4791 d2bf 94c6 fdbe fc9d 383e c161 f1be
00000040: 664d 30bf fdfc 95c0 28dd 6abd d4e5 e9bb
00000050: 1a8f 12bf 5503 603c a565 303e 7672 943e
00000060: ce7b 093d 9ef7 81be 29d0 c0bd 8966 06bf
00000070: 625f aa3f 88e6 07be 4e3d 48be 568e 8c3f
00000080: 75c7 9cbf ea47 823d 59cc 1d3e d1b1 bdbe
00000090: 0a1c a7be c2a9 80bf c20e ae3c 76a2 c0bd
000000a0: e28f 02bf b64e 673e 35e4 80bf ef46 55be
000000b0: 5e43 cf3d d3df b43e 69dc 21bf b0d5 01bf
000000c0: 7f37 803d c428 383e 6efc 44be 2e33 41be
000000d0: d885 23c0 dd07 7bbf c2ed 34c0 d29f 41bf
000000e0: 552d 053e 8dfe 193e d714 7fbf 476c 883e
000000f0: a89a 583f 8caa 113e f16b 66bd 8a91 2e3d
00000100: 141d abbf b8ce eabf 12bf dbbe 2c84 223f
00000110: cc76 a1be 67da b33e 242e 22be f13a 9c3e
00000120: fbcc bb3e 35ac ddbf c777 d83d 77b9 e5be
00000130: 4499 433f 1bf0 b53d 9a3a 863f 3855 6c3f
00000140: 8807 113f ee69 b23e 3e01 e23e 1358 a3bd
00000150: d88f 87be bb49 12bf 067f 58be e519 01c0
00000160: 1d52 8e3e 09a5 b7bf 6b55 003f c4b7 d7be
00000170: c999 e1be 17da e1bf 8666 3ebf 9144 debf
00000180: 7062 c93d 1d0f 403e 3037 5bbf 0eee 533e
00000190: c8e9 0c3f 3065 363f 98af 27be 4d67 e13d
000001a0: 3f12 bfbf eba0 8fbc 9830 433e 809b b1bc
000001b0: ec21 453e 9ad7 a2bd 7071 d13d f16e d33d
000001c0: ed47 cbbe 6971 edbf 613c a4bd 36ba 4c3d
000001d0: 0c87 0c3f d318 0e3e 62c5 0bc0 6811 9bbe
000001e0: 87b0 64be 4b7a 06bf 66a5 ffbe 3049 dbbe
000001f0: 4b05 793d e77b 1c3e 7005 20bf 95e2 913e
00000200: fad2 77bf d5ef 203d dfd1 053e 11e5 9bbe
00000210: 1cc9 38bf c360 0b3f 6269 3dbe 0d56 a5be
00000220: 54eb a6bf 5633 e23d f254 47bf 3568 93bd
00000230: fc5c cd3d 24ee b33e 05ee 12bf fb88 5dbf
00000240: 2672 f63d fc62 2e3e 194a 28be fb00 7abf
00000250: 254d 9a3f 9a3c 92bf 73e7 6d3e 067d 33bf
00000260: ea1b c83d 034a 253e 6bc1 2dbf 7e51 913e
00000270: 5f58 7cc0 8a28 073e d47e 38be 2bb9 033e
00000280: 5885 e73e e129 bcbf df3e 01c0 bb7f 8abf
00000290: 5818 0fc0 b6b1 1c3f 7e2b 83be 1a4d 8fbf
000002a0: 60a5 abbf 15e0 bdbf 33ee ee3d 1a34 56bf
000002b0: 85b5 13be 4f94 1fc0 088f a8be e4c9 64bf
000002c0: 2815 8bbf a65d dfbf 8321 9d3e 0c55 9f3e
000002d0: 2e78 133f 22c3 cf3e 93cb 9bbb 7d8c 1a3f
000002e0: 521e f4bf 632e a8bd 6cee 293d 17d8 b0bf
000002f0: ff91 13c0 ce7f c0bf 6808 5f3f 4760 43be
00000300: e1f0 723e 26cb 7cc0 6e38 2a3f 63d4 2ebf
00000310: 74a6 383e 7155 523f 2a0e b43d 95f4 05bf
00000320: 68cc 1e3e dad8 283e caa5 b1be 081f e8be
00000330: f0c7 cbbf 4124 a23d fb95 57be a02d 0fbf
00000340: 4955 783d f660 c4bf 13a8 303e c92a b8be
00000350: 9e42 d83d 4bd6 59bc 5d4c 633e df0a 853e
00000360: a085 383e 9221 453e 498b e53d 40aa a7bd
00000370: e7a7 c8bf 3ace c83d 05db ccbd b758 34c0
00000380: d240 103e 73ee 483e e946 8cbf 4622 983d
00000390: 0737 3ac0 20c3 efbf 9580 0abe 439b 063e
000003a0: 2682 6ebf 2ecc 19bd 0e39 503e 1526 2cbd
000003b0: 1784 4a3e 1439 dfbb 44be ae3d 3e55 fd3d
000003c0: e689 1dbf 57e2 ccbf acf1 b8be deab 173e
000003d0: 4cec 9bbf bd1d 973d 7d28 a93f f4ce c7be
000003e0: 7c41 06bf 1229 7bbe 09b2 b6be 72ab e6be
000003f0: 4ff7 083e ae2d 443e 196f d5bd 0502 8e3e
0.20574874 -4.285274 -1.5175748 -0.20150413 0.24390614 -1.4861064 -0.07379537 -0.5077758
0.16514438 0.17291628 -0.054245766 0.5906513 -1.6450585 -0.49565566 0.18029016 -0.47144893
-0.688681 -4.6871324 -0.057339817 -0.0071379934 -0.57249606 0.013672669 0.17226274 0.28993577
0.033565335 -0.2538423 -0.094147034 -0.52500206 1.3310359 -0.13271534 -0.19554636 1.0980937
-1.224837 0.06361373 0.15409984 -0.37049726 -0.3263858 -1.0051806 0.021247271 -0.09405987
-0.510008 0.2258862 -1.0069643 -0.2082784 0.10120271 0.35327014 -0.63226944 -0.50716686
0.06260585 0.17984301 -0.1923692 -0.1886718 -2.5550442 -0.98058873 -2.8270116 -0.7563449
0.13005574 0.1503851 -0.99641174 0.2664511 0.84610987 0.14225215 -0.056255285 0.042619266
-1.3368249 -1.8344336 -0.42919213 0.6348293 -0.31535947 0.35127565 -0.15837914 0.3051372
0.36679825 -1.7318178 0.10569721 -0.4486806 0.7640574 0.08883687 1.0486634 0.92317533
0.56652117 0.34846443 0.44141573 -0.07975783 -0.26476932 -0.57143754 -0.21142206 -2.0172055
0.27797022 -1.434724 0.5013034 -0.4213239 -0.4406264 -1.7644681 -0.7437519 -1.7364675
0.098332286 0.18755765 -0.85631084 0.2069628 0.5504422 0.7124815 -0.16375577 0.11006031
-1.4927443 -0.017532786 0.19061506 -0.021680593 0.19251221 -0.07951279 0.102267146 0.10323895
-0.39703313 -1.8550235 -0.08019329 0.049982272 0.54893565 0.13876657 -2.1839223 -0.30286717
-0.22332965 -0.52530354 -0.49930876 -0.42829275 0.060796063 0.1528164 -0.62508297 0.2849318
-0.968063 0.03929122 0.1306834 -0.304482 -0.7218187 0.5444452 -0.18497232 -0.32292214
-1.3040566 0.11044948 -0.7786399 -0.0719761 0.10027501 0.35142624 -0.5739444 -0.8653714
0.12033491 0.17029947 -0.16434516 -0.97657746 1.2054793 -1.1424744 0.23232822 -0.70112646
0.09770949 0.16141514 -0.6787326 0.28382486 -3.9428937 0.13199058 -0.18017131 0.12863605
0.4521892 -1.470028 -2.0194623 -1.082023 -2.2358608 0.61208665 -0.2561912 -1.1195405
-1.3409843 -1.483401 0.11666527 -0.8367325 -0.14424713 -2.493427 -0.32921624 -0.8937056
-1.0865831 -1.7450454 0.3068963 0.31119573 0.57605255 0.40578562 -0.0047544925 0.6037062
-1.9071753 -0.082119726 0.041487142 -1.3815945 -2.305786 -1.5039003 0.871222 -0.19079696
0.237247 -3.9498992 0.66492355 -0.68292826 0.18032247 0.82161623 0.08791764 -0.5232633
0.15507662 0.16488972 -0.346968 -0.45336175 -1.5920391 0.07917071 -0.21053307 -0.55928993
0.06062821 -1.534209 0.17251615 -0.35970142 0.10559581 -0.01329572 0.22197099 0.25984856
0.18019724 0.19251087 0.11208207 -0.081867695 -1.567624 0.098049596 -0.10002712 -2.8179147
0.14087227 0.19622211 -1.095914 0.07428412 -2.9096086 -1.8731422 -0.13525613 0.13145165
-0.9316734 -0.037548237 0.20334265 -0.042028505 0.19776951 -0.006812224 0.08532384 0.12369774
-0.6153854 -1.6006573 -0.3612188 0.14811656 -1.2181487 0.07378719 1.3215481 -0.3902508
-0.5244367 -0.24527386 -0.35682705 -0.45052677 0.1337559 0.1915805 -0.10421581 0.27735916

model.4.bias f4 [10]
00000000: 23eb 6cbe 097f 4f3e 5bb6 0fbf 0737 acbd
00000010: b51f ecbd f731 ebbd 9c2d 2c3e c5c7 3b3e
00000020: d050 cdbe 6f15 40bf
-0.23136573 0.20263304 -0.5613763 -0.08408933 -0.11529485 -0.114841394 0.16814274 0.18337925
-0.40100718 -0.75032705
